keypoint_classifier.tflite (tflite, 6284 bytes, 6 tensors)

dense_26/bias f4 [3]
0	0x3e8feda3	0.2811099
1	0xbe32b03e	-0.17450044
2	0xbde4d2f7	-0.11173051

dense_25/bias f4 [10]
0	0x3e565cbb	0.20933811
1	0x3ecb6bd2	0.39730698
2	0xbd3e438b	-0.046451133
3	0xbd2a937d	-0.041644562
4	0x3ed6f083	0.4198037
5	0x3b72e685	0.003706367
6	0x3eda100c	0.42590368
7	0x3d8170b1	0.06320322
8	0xbe21ccdc	-0.15800804
9	0x3ee5b681	0.44865802

dense_24/bias f4 [20]
0	0xbe526ff6	-0.20550522
1	0x3df2216d	0.11822782
2	0x3dfd3454	0.123634964
3	0x3e084cde	0.13310573
4	0xbe8a0fe4	-0.2696525
5	0xbec6d0c7	-0.3883116
6	0xbe2ffe31	-0.1718681
7	0xbe8468ea	-0.25861293
8	0x3e896462	0.26834399
9	0xbcffbfab	-0.031219324
10	0x3c509430	0.012730643
11	0xbf05fee5	-0.52342063
12	0xbeb070c0	-0.3446102
13	0xbe55456f	-0.20827268
14	0x3c19b597	0.009381673
15	0x3c963cd4	0.018339552
16	0xbe168f78	-0.14703166
17	0x3e404588	0.18776524
18	0xbeb96d8b	-0.36216387
19	0xbe9679a5	-0.29389682

sequential_8/dense_24/MatMul f4 [20, 42]
0	0xbe876be0	-0.2644949
1	0xbd4aa568	-0.04947415
2	0x3e473c32	0.19456556
3	0xbc4d3d0b	-0.012526761
4	0x3da4b868	0.08042985
5	0x3e357c91	0.177233
6	0xbe2e1bad	-0.17002745
7	0x3c9f670e	0.01945832
8	0xbd8180d3	-0.063233994
9	0x3ec263df	0.3796682
10	0x3ebffb1a	0.37496263
11	0x3d600ef8	0.054701775
12	0x3e1da05c	0.15393203
13	0x3cd6e6a7	0.02623303
14	0x3e64dc84	0.22349745
15	0xbc4b4518	-0.01240661
16	0xbcf2ce63	-0.029639428
17	0x3df10258	0.11768025
18	0xbd36a0f5	-0.044587094
19	0x3dba0ef2	0.09084882
20	0x3c7e03b9	0.015503817
21	0x3c82ec9f	0.01598197
22	0xbd64ea68	-0.05588761
23	0xbe8e2031	-0.27758935
24	0xbecced5f	-0.4002485
25	0x3d0ab9b7	0.033868518
26	0xbd2fb377	-0.04289576
27	0x3de99ec6	0.11407237
28	0x3e5c22e9	0.21497692
29	0xbd3ea220	-0.046541333
30	0x3e8d001e	0.27539152
31	0xbea06b1b	-0.31331715
32	0xbca9cca7	-0.020727469
33	0xbed37e38	-0.41307235
34	0x3da311b9	0.07962365
35	0x3d1d6e80	0.03843546
36	0x3d41bdb0	0.04730004
37	0xbc8c19e5	-0.017102191
38	0x3e8ee26f	0.2790713
39	0xbee8e019	-0.45483473
40	0xbb7c1ee6	-0.0038470565
41	0xbf212686	-0.6294941
42	0xbe8da32a	-0.27663547
43	0xbe80e212	-0.25172478
44	0xbe8b4cdb	-0.27207074
45	0x3e1cda71	0.15317704
46	0x3dd6a59f	0.104808085
47	0xbdc390ca	-0.09549101
48	0xbe7b031e	-0.24512908
49	0xbdac7590	-0.08420861
50	0xbf18fb9e	-0.5975894
51	0x3d4616c7	0.048361566
52	0x3dd3ab62	0.10335423
53	0x3e2761a4	0.1634584
54	0x3e443cd7	0.19163834
55	0xbe1d739b	-0.15376131
56	0xbe11d6dc	-0.14242119
57	0xbd876771	-0.06611527
58	0x3d2c8276	0.042116605
59	0x3dbe6c40	0.09297991
60	0xbe00e973	-0.12589054
61	0x3e59bda5	0.2126375
62	0x3dfb296d	0.12263761
63	0x3e1d8bf2	0.15385416
64	0x3d51780f	0.051139887
65	0xbd8d7ec4	-0.06908944
66	0xbc8d90d9	-0.017280983
67	0x3ce025a3	0.027361697
68	0x3e8ec911	0.27887776
69	0x3d58287e	0.05277299
70	0x3ecb9ced	0.39768162
71	0xbde0bf4b	-0.10973986
72	0x3efe3a8a	0.49654037
73	0xbe262883	-0.16226391
74	0x3edc4372	0.43020207
75	0x3ea947c9	0.3306258
76	0x3ec62d6a	0.38706523
77	0xbe2fb577	-0.17159067
78	0x3ef15768	0.47136998
79	0x3e388c0a	0.1802217
80	0x3ee53680	0.44768143
81	0x3e627dd0	0.22118306
82	0x3f2a696f	0.6656713
83	0x3e2086be	0.156764
84	0xbd84a128	-0.064760506
85	0x3c6e5c00	0.014548302
86	0xbeb11472	-0.3458591
87	0x3e3a7235	0.18207629
88	0x3de3a922	0.11116244
89	0xbd752ef2	-0.059859224
90	0x3ec275e0	0.37980556
91	0xbd54dfec	-0.05197136
92	0x3e0fdc88	0.1404897
93	0xbe01f8d1	-0.12692572
94	0x3e413473	0.18867664
95	0xbe17398f	-0.1476805
96	0x3e99a9ba	0.30012304
97	0x3e0bda68	0.13657534
98	0xbdc23470	-0.09482658
99	0xbe808deb	-0.25108275
100	0x3eaeb39b	0.34121403
101	0xbd9331fe	-0.0718727
102	0x3e80c080	0.25146866
103	0x3d91f8ac	0.071275085
104	0x3d8e882d	0.06959567
105	0xbd425fcb	-0.047454637
106	0x3eaecef4	0.34142268
107	0xbd7658cc	-0.060143277
108	0x3ec61a71	0.38692048
109	0x3d50f89a	0.051018335
110	0x3d70009a	0.058594324
111	0xbd04ea02	-0.03244973
112	0x3ec3c7cd	0.38238373
113	0xbd86e9d8	-0.06587571
114	0xbe1dc7e4	-0.15408283
115	0xbe1a875c	-0.15090698
116	0x3d8c71f5	0.06857673
117	0x3ea17af2	0.31539112
118	0xbd14a3a8	-0.036288887
119	0x3dc0ed66	0.0942028
120	0xbe16bc7b	-0.14720337
121	0x3e2ff660	0.17183828
122	0xbd20fa32	-0.039301105
123	0xbc3d74f8	-0.011563532
124	0xbe7e56d5	-0.24837811
125	0xbda08c16	-0.07839219
126	0x3df783c4	0.12085679
127	0x3dd9a970	0.10628021
128	0x3f13b890	0.57703495
129	0x3e422ab8	0.18961608
130	0x3ec0d2a7	0.37660715
131	0xbe7d7833	-0.24752884
132	0x3eff60c3	0.4987851
133	0xbeffc52c	-0.49955118
134	0x3dcbd053	0.09951844
135	0xbf22386c	-0.6336734
136	0x3d473da4	0.04864277
137	0x3e61b026	0.22039852
138	0x3d2277a9	0.039664898
139	0x3e268d8d	0.16264935
140	0x3e42e3d7	0.19032227
141	0x3dfbcb20	0.122946024
142	0x3e0fbeb1	0.14037587
143	0x3e5232e9	0.20527233
144	0x3e62200e	0.2208254
145	0x3ae792eb	0.0017667686
146	0x3c931439	0.017953979
147	0x3c09b109	0.008404025
148	0xbe2520c0	-0.16125774
149	0xbd6905d4	-0.056890324
150	0xbdab6f57	-0.08370846
151	0xbe50952e	-0.20369408
152	0x3e5881b4	0.21143228
153	0x3ec55409	0.38540676
154	0xbddeed28	-0.10885078
155	0x3d85356d	0.06504331
156	0xbe657135	-0.22406466
157	0x3e4263c6	0.18983373
158	0xbecabe7a	-0.39598447
159	0x3e2f2c67	0.17106782
160	0x3e2a8a25	0.1665426
161	0xbd34cfc0	-0.04414344
162	0xbda5c5bb	-0.08094355
163	0x3ebf3ce0	0.3735113
164	0xbe8fb63e	-0.28068727
165	0x3f082141	0.5317574
166	0xbe21840e	-0.15773031
167	0x3e303bcc	0.1721031
168	0x3e0970be	0.13421914
169	0xbe1c6750	-0.15273786
170	0xbe445e75	-0.19176657
171	0xbdce51c8	-0.10074192
172	0xbdaf0e0b	-0.085476
173	0xbd45f56e	-0.048329763
174	0xbe75d75c	-0.24007934
175	0xbecba70d	-0.39775887
176	0xbe3982ad	-0.18116255
177	0xbeed52aa	-0.4635213
178	0x3db69468	0.08915025
179	0xbe0acfec	-0.13555878
180	0xbe21c323	-0.15797095
181	0x3e248c29	0.16069092
182	0x3ca8e129	0.020615177
183	0x3ebdf86b	0.3710359
184	0x3df2d992	0.118579045
185	0x3ead43b2	0.3384071
186	0x3d74891c	0.05970107
187	0xbe8ecbe5	-0.27889934
188	0xbe266343	-0.16248803
189	0xbe2ab54d	-0.16670723
190	0x3d8a0b8c	0.06740484
191	0xbd996f16	-0.07491891
192	0x3da9e8bb	0.08296343
193	0xbdab6e99	-0.08370704
194	0x3e5a6559	0.21327724
195	0x3d786c9b	0.06065045
196	0xbe3e3493	-0.18574743
197	0xbe506084	-0.20349318
198	0xbe051877	-0.12997614
199	0x3e4fd667	0.20296632
200	0xbe12d138	-0.14337623
201	0x3e713674	0.23555928
202	0x3df36031	0.118835814
203	0xbcc0e0d5	-0.023544708
204	0xbe066d5c	-0.13127655
205	0xbd6f77cb	-0.058463853
206	0xbdec0d17	-0.11525934
207	0x3c75767b	0.014981861
208	0x3e3d2c3c	0.18473905
209	0x3ebc6914	0.36798918
210	0x3e99b3c4	0.30019963
211	0xbe36c7b7	-0.17849623
212	0xbe35cf75	-0.1775492
213	0xbc787518	-0.015164636
214	0xbe8f1e11	-0.27952626
215	0xbe19d364	-0.15022045
216	0x39fe9e8a	0.00048564776
217	0xbe696ded	-0.2279584
218	0x3d06c0f9	0.032898877
219	0xbe3d3802	-0.18478397
220	0xbdf7c62b	-0.120983444
221	0xbea6eb1f	-0.32601258
222	0x3d24d7c6	0.04024484
223	0xbdaa9d3e	-0.08330773
224	0x3de2e338	0.11078495
225	0x3e677880	0.22604561
226	0x3d124311	0.03570849
227	0x3e676f1a	0.22600976
228	0xbe2175cc	-0.15767592
229	0xbed80846	-0.42193812
230	0xbd24d347	-0.040240552
231	0x3db4d5d2	0.088298455
232	0x3d8cda90	0.06877625
233	0x3d17973d	0.037009466
234	0x3da110b6	0.078645155
235	0x3eae007b	0.33984742
236	0xbea82b5c	-0.3284558
237	0xbeda4ddc	-0.42637527
238	0x3ab981db	0.001415308
239	0xbddc5241	-0.10757876
240	0xbdd6abcc	-0.104819864
241	0x3e2e6dcb	0.1703407
242	0x3e5f84a8	0.21827948
243	0xbb95a381	-0.0045666103
244	0xbe50bc25	-0.20384271
245	0xbeb50f57	-0.35363266
246	0xbd2ccc60	-0.042187095
247	0xbe482747	-0.19546233
248	0x3cb94566	0.0226161
249	0x3d9969e7	0.074909024
250	0xbddd6b6b	-0.10811504
251	0x3dac8bd0	0.084251046
252	0x3de16b7c	0.11006829
253	0x3ddcd59c	0.1078293
254	0x3d9478e4	0.072496206
255	0x3e7e4fc2	0.24835113

sequential_8/dense_25/MatMul f4 [10, 20]
0	0x3c3ed6a5	0.011647855
1	0xbeb7571a	-0.3580864
2	0xbf252b08	-0.64518785
3	0xbdd3cc86	-0.10341744
4	0x3e1146af	0.1418712
5	0x3eb339dd	0.35005084
6	0xbf1d86ed	-0.61534005
7	0xbc94f59d	-0.018183524
8	0x3f05fc5f	0.5233821
9	0x3e4e2de4	0.20134693
10	0xbd80f338	-0.0629639
11	0x3f6141a6	0.87990797
12	0x3f399c55	0.7250417
13	0x3edc6b98	0.43050838
14	0xbf20a172	-0.62746346
15	0x3ef924fe	0.48661035
16	0xbd1c97df	-0.038230773
17	0x3eb20b10	0.34774065
18	0x3e0feaa1	0.14054348
19	0xbe9f880d	-0.31158486
20	0x3ee8c077	0.4545934
21	0x3e64bc08	0.22337353
22	0xbc57c1d0	-0.013168767
23	0x3ea90d8c	0.33018148
24	0x3dc4cfd3	0.09609952
25	0xbee04f5f	-0.43810555
26	0x3e15b22b	0.14618747
27	0x3ee15812	0.44012505
28	0x3eea127d	0.4571723
29	0xbd36b7cc	-0.044608876
30	0x3f3669c4	0.71255136
31	0xbe230239	-0.15918817
32	0xbd35611d	-0.044282068
33	0xbeabe94b	-0.33576426
34	0x3e9efe8a	0.31053573
35	0xbe631d3d	-0.22179122
36	0xbe370e88	-0.17876637
37	0x3d3e99bd	0.046533335
38	0xbb5c867a	-0.003364949
39	0x3ed0cac1	0.4077969
40	0xbe03d97c	-0.12875932
41	0xbf0a6775	-0.5406411
42	0xbe908d36	-0.28232735
43	0x3eb541f4	0.3540188
44	0x3e862668	0.26201177
45	0x3f170225	0.5898765
46	0xbf010499	-0.5039764
47	0x3ee02068	0.43774724
48	0xbe235b18	-0.15952718
49	0xbf1b4bb7	-0.60662407
50	0xbeba5993	-0.36396465
51	0x3f36205e	0.7114314
52	0x3e920ce2	0.28525454
53	0x3f3c008f	0.7343835
54	0xbe2addbf	-0.16686152
55	0x3e5a9118	0.21344411
56	0x3e12092d	0.14261313
57	0xbef45e16	-0.47728032
58	0x3f366f63	0.7126371
59	0xbd92b459	-0.07163305
60	0x3e87cb73	0.26522407
61	0x3ef995e1	0.4874716
62	0xbe85b243	-0.26112565
63	0x3e17545f	0.14778279
64	0x3f0c78b6	0.5487169
65	0x3ea822b9	0.3283899
66	0x3ebed054	0.37268317
67	0x3f18b94f	0.5965776
68	0x3c483ea6	0.012221968
69	0xbed5ab88	-0.4173243
70	0x3e193ce8	0.1496464
71	0x3eacbeac	0.3373922
72	0x3eeefec4	0.46678746
73	0xbe2ef3a5	-0.1708513
74	0xbe4afa4c	-0.19822043
75	0x3d417b10	0.047236502
76	0x3f1c2bcd	0.61004335
77	0xbe3c1d58	-0.18370569
78	0x3efac9c4	0.4898206
79	0x3f002907	0.500626
80	0xbe091c77	-0.13389765
81	0x3e845511	0.2584615
82	0x3ef86f29	0.48522308
83	0xbece0c5a	-0.40243798
84	0xbf09d7c9	-0.53844887
85	0xbed1b5a1	-0.40958884
86	0x3d8eaf76	0.0696706
87	0xbe21bdc5	-0.15795048
88	0x3f21d0bb	0.6320912
89	0x3f1dee3c	0.6169164
90	0xbeb70dc8	-0.35752702
91	0xbe7eaca7	-0.24870549
92	0x3e9d5121	0.3072596
93	0x3eee4a73	0.46541175
94	0xbd944668	-0.072399914
95	0x3f008db5	0.5021623
96	0xbf040d34	-0.51582646
97	0x3f129902	0.5726472
98	0x3d6b1b11	0.05739886
99	0xbdf21dd9	-0.11822099
100	0x3e917e7c	0.28416812
101	0xbdd0cd0a	-0.10195358
102	0x3db3bf8f	0.08776771
103	0xbecfbc3a	-0.40573293
104	0xbe151bd0	-0.14561391
105	0x3df5d8af	0.1200422
106	0x3f5bc1e0	0.85842705
107	0x3f063194	0.524194
108	0xbdb4c2f3	-0.08826246
109	0xbde37a6b	-0.11107334
110	0x3e9c7f03	0.30565652
111	0xbdb6881d	-0.0891268
112	0x3e598b92	0.21244648
113	0xbc6d4c6a	-0.014483551
114	0xbeab27f3	-0.33428916
115	0xbe1da1e2	-0.15393785
116	0x3e58bea2	0.2116647
117	0xbd89dc8f	-0.06731521
118	0x3e9eae64	0.30992424
119	0xbdf0f960	-0.117663145
120	0x3dcae1cf	0.09906351
121	0x3f280f65	0.6564849
122	0xbdc38eb6	-0.09548704
123	0x3f07d099	0.5305267
124	0xbe127dda	-0.14305821
125	0xbed7cc87	-0.4214823
126	0x3ebdb648	0.37053132
127	0x3ed33e35	0.41258398
128	0x3ee00279	0.43751886
129	0x3edef2ce	0.4354462
130	0x3e478999	0.19486083
131	0xbe43657f	-0.19081686
132	0x3d4ca476	0.04996153
133	0xbe4eb94e	-0.20187876
134	0xbe57c54b	-0.21071355
135	0xbe05f0a9	-0.13080086
136	0x3e71e950	0.23624158
137	0x3f15311c	0.5827806
138	0x3d36efa4	0.044662133
139	0x3ea9df23	0.33178052
140	0x3ee0961a	0.43864518
141	0x3eac3e80	0.33641434
142	0x3eb55b79	0.3542135
143	0x3e543fcb	0.2072746
144	0xbe02acc0	-0.12761211
145	0x3d778eb8	0.06043884
146	0x3d222d95	0.03959425
147	0x3e96bd04	0.29441082
148	0x3dd28760	0.10279727
149	0xbe2ef9f7	-0.17087542
150	0x3edb58a6	0.4284107
151	0xbe1135f7	-0.14180742
152	0xbd92e65f	-0.07172846
153	0x3dc6afbe	0.09701489
154	0x3efa68ff	0.4890823
155	0xbe2c24e4	-0.16810948
156	0x3e9c074e	0.30474323
157	0x3dd5bcf1	0.10436428
158	0x3c21a406	0.009865766
159	0x3eb9a6d3	0.3626009
160	0x3e6bb481	0.23018076
161	0xbd9cd0e4	-0.0765703
162	0x3e421f6f	0.18957303
163	0x3f3909d3	0.72280616
164	0x3f1f0091	0.6211024
165	0x3d1c83cc	0.03821163
166	0x3ed221d4	0.41041434
167	0x3ed4dbe0	0.41574
168	0x3e396dba	0.18108264
169	0xbdd8f452	-0.105934754
170	0x3e8e8900	0.27838898
171	0x3f05e53d	0.52302915
172	0xbdc20567	-0.09473687
173	0x3d6a74a0	0.05724013
174	0x3ecd1dac	0.400617
175	0x3e05e94e	0.1307728
176	0x3f243e15	0.6415723
177	0xbdf88f99	-0.12136764
178	0x3f01aa31	0.50650316
179	0xbed2f2bb	-0.41200814
180	0x3f233b09	0.63761955
181	0x3f2e9127	0.68190235
182	0x3e820a2b	0.25398383
183	0x3f1d4527	0.61433643
184	0xbe3c646c	-0.18397683
185	0xbe8fdeab	-0.2809957
186	0x3eeca837	0.46222088
187	0x3d7679c7	0.06017473
188	0x3eacf178	0.33777976
189	0xbe164c3f	-0.14677523
190	0x3f274822	0.6534444
191	0xbe8411cf	-0.25794837
192	0xbe1c16cf	-0.15243076
193	0xbe879edf	-0.26488397
194	0x3f206e81	0.62668616
195	0x3e910e22	0.28331095
196	0x3eece8c8	0.46271348
197	0x3f22971b	0.6351182
198	0xbdc898d7	-0.09794777
199	0x3e2c0571	0.1679895

sequential_8/dense_26/MatMul f4 [3, 10]
0	0xbd529f32	-0.05142135
1	0x3e012314	0.12611037
2	0xbf0fcd40	-0.5617256
3	0xbf09454d	-0.5362137
4	0x3f3be7d7	0.73400635
5	0xbf3c7354	-0.73613477
6	0x3d702371	0.05862755
7	0xbed6b7eb	-0.41937193
8	0xbf700f37	-0.93773216
9	0x3eaf3c73	0.34225807
10	0x3ea1ae19	0.31578138
11	0xbf151b4f	-0.58244795
12	0x3f048940	0.51771927
13	0x3f3caa92	0.7369777
14	0xbef69a8d	-0.48164788
15	0x3eef5796	0.4674651
16	0xbf3007cd	-0.68761903
17	0xbf143d87	-0.57906383
18	0xbe936f22	-0.28795725
19	0xbf148da9	-0.58028656
20	0xbf03e7cf	-0.51525587
21	0x3f2422ea	0.64115775
22	0xbeac52f7	-0.33657047
23	0x3f03fdf4	0.51559377
24	0xbf44a784	-0.7681811
25	0x3f67058e	0.9024285
26	0x3ec96529	0.39334992
27	0xbdbcfed8	-0.09228295
28	0xbe9044ae	-0.28177398
29	0x3f362afd	0.71159345
