point_history_classifier.tflite (tflite, 6208 bytes, 6 tensors)

dense_2/bias f4 [5]
000000 f2 f7 6a 3e c0 52 3c 3f e1 fd 26 be 2a fa 94 be
       0.22946146 0.73563766 -0.16307785 -0.2909711
000010 2a 3a ce be
       -0.4027875

dense_1/bias f4 [10]
000000 e5 84 52 3e f9 1e 28 3f 50 ff 1f 3d dc 08 2a 3f
       0.20558508 0.6567226 0.039061844 0.6641977
000010 53 20 4e 3f d0 44 ae 3f 1b ae 97 3e dd 6f 89 3e
       0.8051807 1.361475 0.2962502 0.26843157
000020 92 10 e7 be 5a 54 91 3f
       -0.4512983 1.1353867

dense/bias f4 [24]
000000 57 f8 13 be 38 7f 4a bd e5 f3 94 3e 73 8a 0f 3e
       -0.14450203 -0.04943773 0.29092327 0.14017658
000010 f6 4a 20 bd b7 77 0c be d5 0b 8d bd de e0 f4 bd
       -0.03913399 -0.13717543 -0.068870224 -0.119569525
000020 64 e0 09 be 05 35 d4 bd 57 d4 ef bc f0 08 0d be
       -0.13464504 -0.10361675 -0.029276056 -0.1377294
000030 da 28 fa bd 7c f3 03 bd d3 5c d9 bc 37 df 0d be
       -0.12214823 -0.032214627 -0.02653352 -0.13854681
000040 9b 02 80 bd 36 10 17 be ca 9d f4 bd 35 26 93 bd
       -0.06250497 -0.14752278 -0.119441584 -0.07185022
000050 39 c0 16 bd 2e 79 52 bd fc 02 00 be e8 66 a4 3e
       -0.03680441 -0.051385097 -0.12501138 0.3210976

sequential/dense/MatMul f4 [24, 32]
000000 68 3a d4 bd 9f 37 29 be 54 f3 a5 bf 33 0e a0 bf
       -0.103627026 -0.16525124 -1.2964883 -1.2504333
000010 a9 8e bc bf fa cf 6a bf af 15 af bf 6f 9d f4 be
       -1.4731036 -0.917236 -1.3678492 -0.47776362
000020 eb d2 a8 bf 38 0a 45 be 59 e9 8a bf 85 18 12 3e
       -1.3189367 -0.1924218 -1.0852462 0.14267166
000030 4f 64 29 bf 28 3f 89 3e fa 4d ad be f7 65 c1 3e
       -0.66168684 0.26805997 -0.33848554 0.37773106
000040 a3 6e e8 3d f1 5a e1 3e 3d cd 7e 3e 9e 6d e4 3e
       0.11349227 0.44014695 0.2488298 0.4461488
000050 5f 94 d4 3e 3c 81 c2 3e 61 79 ea 3e 2e 6c 8f 3e
       0.41519448 0.37989223 0.4579573 0.28012222
000060 49 ce d7 3e 7e 51 63 3e 0a 1a d8 3e c9 e1 e2 3d
       0.4214957 0.22199056 0.42207366 0.11078221
000070 71 54 32 3e cf c8 e4 3d 2d 20 fd be e4 7f f2 3c
       0.17415024 0.11171114 -0.4943861 0.029601999
000080 36 25 fb bd 97 da 8a be eb 87 8c 3d 1f 4d 12 3f
       -0.12262957 -0.27119896 0.06861862 0.5714893
000090 b5 6a 07 3f bf 39 88 3f cc b7 2b 3f f9 28 1e 3f
       0.52897197 1.0642623 0.67077327 0.6178127
0000a0 fa 52 12 3f 71 8c 30 3f 01 47 c8 3e 12 ce e9 3e
       0.5715786 0.68964297 0.39116672 0.45665032
0000b0 40 44 a8 3e 3a 4f a4 3e 3c 2a 04 3f 4f 04 85 3e
       0.3286457 0.32091695 0.51626945 0.2597985
0000c0 1b 34 76 3e 5c 69 d2 3d fe 50 05 3f 8c 0e ee bb
       0.24043314 0.10274002 0.5207671 -0.0072649177
0000d0 9b c3 0b 3f 92 13 1b 3c 03 ad 0e 3f aa f9 06 bd
       0.54595345 0.009465115 0.55732745 -0.032952942
0000e0 f0 c6 dc 3e 10 e0 ed bd 87 b1 22 3f cf 1a 52 be
       0.43120527 -0.11615002 0.63552135 -0.20518039
0000f0 f1 2f 17 3f 02 5c 1c bf e7 2b 1b 3f 9e d1 d1 bf
       0.5905753 -0.6107789 0.60613865 -1.6392095
000100 38 ad 12 bd 18 0c c5 bd 64 de 83 3e 2a ef 24 bf
       -0.035809726 -0.09621447 0.25755608 -0.64427435
000110 78 a1 fd 3e fb 64 33 bf af bc ea 3e e5 14 2a bf
       0.49537253 -0.7007596 0.4584708 -0.6643813
000120 30 14 e7 3e 33 0d 8e be b5 38 b1 3e 47 ff a4 be
       0.4513259 -0.27744445 0.34613577 -0.3222601
000130 63 b3 7a 3e f6 ac 06 3e 4c 39 f9 3c b5 08 11 3e
       0.24482493 0.13151917 0.03042283 0.14163478
000140 13 8c 33 3d f4 3a 7e 3e 7b d1 16 bc 22 05 e5 3e
       0.043834757 0.24827176 -0.0092052175 0.4473048
000150 8c 28 00 3e 7c fc 29 3e 9f 03 08 bd 31 00 86 3d
       0.12515467 0.16600221 -0.03320658 0.06543005
000160 b5 03 23 3e 41 98 49 be b6 33 59 3e 84 28 31 be
       0.15919383 -0.19686987 0.21211132 -0.17300612
000170 c2 51 b8 3e 60 05 2d bf e5 76 30 3f dc d2 85 bf
       0.35999876 -0.67586327 0.6893142 -1.0454974
000180 b0 b0 84 3c c4 1c 88 3d 30 99 96 3f 11 c0 a8 bf
       0.016197532 0.066461116 1.1765499 -1.3183614
000190 3d d2 42 3f 53 3c b4 bf e1 fa cf 3e 73 4c 9f bf
       0.7610205 -1.408091 0.40621093 -1.2445205
0001a0 62 77 9e 3e 7a b2 60 bf 80 1a 83 bb b0 c3 62 be
       0.30950457 -0.87772334 -0.004000962 -0.22144961
0001b0 d5 6d 13 3e 10 63 e1 3d a6 27 00 3e 9d 3d 3d 3f
       0.14397366 0.11005223 0.12515125 0.7392214
0001c0 7f fa 7f be 98 eb 75 3f 82 24 3e be b6 b5 3c 3f
       -0.249979 0.9606261 -0.18568614 0.7371477
0001d0 94 47 6f bd b7 b4 2f 3f e1 65 a0 be c5 91 dc 3e
       -0.05841787 0.68635124 -0.31327727 0.43079963
0001e0 08 0b 2a 3e 2d dd a6 bc 57 16 27 3f e5 1a 12 bf
       0.1660577 -0.020369137 0.6526846 -0.5707229
0001f0 25 2f 25 3f 87 96 b8 bf 80 c1 82 3f 05 49 f2 bf
       0.6452506 -1.4420937 1.0215302 -1.8928534
000200 4b 66 80 be e1 b8 99 be e7 6f de 3f 61 55 c7 3e
       -0.25078043 -0.30023864 1.73779 0.38932326
000210 50 ce 04 40 3c 5d 4d 3f 13 f0 a9 3f 2c 17 28 3f
       2.0750923 0.8022039 1.327639 0.6566036
000220 e1 41 5d 3f 00 f0 c7 3e 22 01 21 3f 0f cf d2 3e
       0.8642865 0.39050293 0.62892354 0.41173598
000230 bd 47 06 be 22 01 c6 3e 50 e2 d0 be 6a 1b be 3e
       -0.13113303 0.3867274 -0.40797663 0.3713029
000240 03 51 fb be 80 4d 02 3f bd 5b 12 bf b1 6e f6 3e
       -0.49085245 0.50899506 -0.5717123 0.48131326
000250 6c b0 28 bf 44 1f da 3e 6a ed 23 bf 6a 16 9f 3e
       -0.658942 0.4260198 -0.6403414 0.31071788
000260 70 ce 29 bf b9 da 0e 3d 78 86 dc be 3d f0 4d be
       -0.66330624 0.03487656 -0.43071342 -0.20111175
000270 08 3e 2c bf 84 c0 c4 bd 1b c9 08 bf 79 6e 32 be
       -0.6728215 -0.09607032 -0.5343186 -0.17424954
000280 8c f8 16 3e 84 24 89 be 53 dc 11 bf 7d 95 cd bf
       0.1474325 -0.26785672 -0.56976813 -1.6061245
000290 7b 62 c3 be 95 3c b2 bf a2 b6 d7 3d 03 fe 60 bf
       -0.38161072 -1.3924738 0.10532881 -0.8788759
0002a0 05 b5 6b 3e e5 77 5d bf e0 bf 88 3e 74 29 f9 be
       0.23018272 -0.8651107 0.2670889 -0.4866444
0002b0 b0 18 0c 3f f0 f3 bd be d7 ad 3d 3f 7e f0 1f be
       0.5472517 -0.37100172 0.74093384 -0.15619084
0002c0 4b 01 7b 3f 07 4f a1 3d 19 d0 66 3f 01 db 2b 3e
       0.9804885 0.078764014 0.9016128 0.16782762
0002d0 0b 0e 44 3f 1e 84 a4 3e 5c ec d3 3e 6b 09 bc 3e
       0.7658393 0.32132047 0.41391265 0.36725935
0002e0 b2 55 f3 3e 77 c1 15 3f 1d 22 39 bc 24 e8 04 3f
       0.47526318 0.5849833 -0.011299637 0.5191672
0002f0 d7 66 17 bf 8b 7d 11 3f 66 61 15 bf 63 d7 11 3f
       -0.59141296 0.5683219 -0.58351743 0.5696928
000300 e8 37 13 bd e0 d8 2f bc fe c7 99 3f 10 18 86 3f
       -0.03594199 -0.010732859 1.2014158 1.0476093
000310 fd 42 c0 3f d9 52 fb 3e ba e3 d1 3f b6 25 51 3e
       1.5020443 0.49086645 1.6397622 0.20424542
000320 71 c3 95 3f 3b d2 9a be c4 f3 50 3f 3b b6 e7 be
       1.1700269 -0.30238518 0.81621957 -0.45256218
000330 28 9d 9a 3e b2 02 00 bf 52 e8 e0 bb 96 5a 16 bf
       0.30198026 -0.5000411 -0.0068636322 -0.58731973
000340 78 7d 67 be 59 ce d7 be d8 ec e6 be 06 34 9d be
       -0.22606456 -0.42149618 -0.45102572 -0.30703753
000350 1b ef 1b bf ab 36 68 be b2 2b 0c bf ed 7e 0c be
       -0.6091172 -0.22677104 -0.54754174 -0.13720293
000360 65 3a f6 be f2 e7 81 bc d7 68 c2 be 68 fc 70 3c
       -0.48091426 -0.01585767 -0.3797061 0.014708616
000370 0b c4 f9 bd 3e 75 01 3e 63 bc a0 3d 99 8a 0f 3e
       -0.12195595 0.1264238 0.07848432 0.14017715
000380 d5 ee 07 be d9 88 87 be 8e 4d d5 3f c8 6e 17 bf
       -0.13274701 -0.26471594 1.6664293 -0.59153414
000390 17 35 d1 3f 78 1e 53 bf c4 bc 99 3f 0d 06 60 bf
       1.6344327 -0.82468367 1.2010732 -0.8750923
0003a0 e1 99 dc 3e 48 92 44 bf 2e f8 a7 be 1d 7d 1d bf
       0.4308615 -0.7678571 -0.32806534 -0.6151903
0003b0 2a 8c 0c bf ee 28 b9 be 26 52 8b bf d0 1d 8a be
       -0.54901373 -0.3616404 -1.0884445 -0.2697587
0003c0 f0 b4 43 bf ab 46 14 3d a8 8b 00 bf a7 f0 a5 3e
       -0.76447964 0.036200207 -0.502131 0.32410166
0003d0 2c a1 33 bf 89 4d ac 3e 5b 01 93 be d0 9e ae 3e
       -0.70167804 0.33652905 -0.28711972 0.3410554
0003e0 41 ea a0 3c 28 5e a0 3e 32 19 ab 3e 77 8f 2c 3e
       0.019642951 0.31321836 0.3341766 0.16851602
0003f0 1a 6e ac 3e fd c1 ac bd e8 fb 29 3f e8 54 cc bd
       0.3367775 -0.08435438 0.66400003 -0.09977132

sequential/dense_1/MatMul f4 [10, 24]
000000 81 2e 06 c0 f8 11 9e 3e 8b 49 08 3f 0a 77 54 3f
       -2.0965884 0.30873084 0.5323722 0.8299414
000010 ee 8b 70 bf 6a 06 9a be 2a 50 d3 be f7 87 ce bf
       -0.93963516 -0.3008302 -0.41272098 -1.6135243
000020 6b 8f ae bd c2 ab 8e 3d e5 01 3f c0 ef 78 3e 3c
       -0.085234486 0.06966354 -2.9844906 0.0116255125
000030 bf ca f8 3d 8d 72 f7 3d 9d 35 29 bf 49 76 1f be
       0.12148046 0.12082396 -0.6609743 -0.15572466
000040 28 51 fa be fd 17 0a c0 23 3e 55 bf e9 a5 af bc
       -0.48890042 -2.1577141 -0.8329794 -0.021441417
000050 d2 b4 ea bf f5 6a 4a c0 5d db 4e bf 2b e7 16 3f
       -1.8336432 -3.1627781 -0.8080347 0.58946484
000060 21 3e 4a be 45 e2 17 3f 2a b5 7c 3f c2 4b 80 3f
       -0.19750263 0.59329635 0.98713934 1.002312
000070 1f 83 51 3f 44 ca 4d 3f 52 b1 c3 3e bb 2e 4d 3f
       0.818407 0.8038676 0.38221222 0.8014943
000080 14 33 9c 3e 46 19 08 3f a7 5f 05 3f ca 74 8c 3e
       0.3050772 0.53163564 0.5209908 0.27432853
000090 6d 06 67 3f a2 e2 18 3f 42 58 79 3f e9 d5 39 3f
       0.9024418 0.59720814 0.97400296 0.72592026
0000a0 c1 53 6f bb b2 c8 bc 3e c2 bd 0e 3e db 10 bb 3e
       -0.0036518427 0.36871868 0.13939574 0.36536297
0000b0 fd d6 0d 3f 30 1e 22 3f c2 44 ec 3f 2c 9d 86 3f
       0.5540617 0.6332731 1.8458483 1.0516715
0000c0 b4 5b 45 40 0c f7 aa 3f af 4b 97 3b d5 38 88 3e
       3.083722 1.3356643 0.0046171765 0.2660586
0000d0 c4 ef 98 3f fe a3 5e 3f 5c 4c 1a 40 aa ed ff 3f
       1.1948171 0.8696898 2.4109106 1.9994404
0000e0 ce d0 f9 3f d8 da 99 3f f8 0f fd 3f 2d 0b 31 40
       1.9516847 1.2019911 1.9770498 2.766307
0000f0 ba ce 9c 3f 57 67 33 3f e6 c3 02 40 c0 d9 89 3f
       1.2250588 0.7007956 2.0432067 1.0769577
000100 ae e8 0e 40 d5 22 4a 3f 9d ed 05 40 72 b0 6f 3f
       2.2329516 0.789594 2.0926278 0.9362861
000110 e7 da 9a 3f 92 16 d0 3f 4d b1 69 3f dc 43 95 bd
       1.2098054 1.6256888 0.91286165 -0.07288334
000120 ec ea 36 c0 7b 07 88 c0 b1 38 72 3e 0d 95 26 3d
       -2.8580885 -4.250913 0.23654439 0.04066949
000130 f8 8f 70 c0 c1 4d 3b c0 d1 96 83 c0 6e e4 0c c0
       -3.7587872 -2.9266207 -4.11216 -2.2014422
000140 ab 45 5b c0 b4 ac 8a c0 63 9a 42 c0 77 f1 47 c0
       -3.4261272 -4.333582 -3.040673 -3.1241128
000150 42 86 36 c0 90 3a 82 c0 1e 08 97 c0 1b 5d 58 c0
       -2.8519444 -4.0696487 -4.719741 -3.3806827
000160 09 1b 7f c0 22 26 2e c0 8f 60 0b c0 a2 9f 66 c0
       -3.986025 -2.7210774 -2.1777685 -3.6034932
000170 89 d8 52 c0 11 b9 2c c0 c1 37 6d c0 8f 0b 8a 3e
       -3.2944663 -2.6987956 -3.706528 0.26961944
000180 97 ad 50 3d 77 6b 4f bd c0 d6 b0 3e 27 78 03 3e
       0.0509468 -0.050639596 0.3453884 0.12838803
000190 c0 3a 5c bf da cd 74 bf ab 05 73 3e 6d 8e 98 3e
       -0.86027145 -0.95626605 0.23732631 0.29796162
0001a0 26 8f 04 be d4 07 81 bf 1e 84 51 bd 0d b0 09 3a
       -0.12945232 -1.0080514 -0.051151387 0.0005252369
0001b0 2a a8 13 bf f5 d8 fb be 1d 88 c1 3d 1b dc b0 bf
       -0.57678473 -0.49188963 0.0944979 -1.3817171
0001c0 66 b7 a3 be 83 b4 c4 bf 72 e4 96 3e ff f2 3f bf
       -0.3197586 -1.5367588 0.29471165 -0.7498016
0001d0 d5 3b 28 bf 69 0c 7f bd 78 08 e7 3e 59 6f 75 3e
       -0.65716296 -0.062267695 0.4512365 0.23968257
0001e0 78 2b 4b bf 27 61 22 bf 72 4b 3f 3c a0 de 21 bf
       -0.79363203 -0.6342949 0.011675702 -0.63230324
0001f0 3e a4 7f 3e a8 1e c3 3e 4e a8 6c bf b6 f9 d0 bf
       0.24964997 0.38109326 -0.9244431 -1.6326206
000200 2d 63 74 be 8f c3 80 3d e2 8a 72 be 5d 2d 74 bf
       -0.23865958 0.062873 -0.23685792 -0.9538172
000210 16 74 71 3e c8 84 ba be fe 6e 5b bf ea 8c 40 3d
       0.2357944 -0.3642943 -0.85716236 0.047009386
000220 53 d9 ee be 95 db 2c 3f 79 59 b1 bf 68 36 35 ba
       -0.4665018 0.67522556 -1.385543 -0.0006912709
000230 ee 7d 8e 3e 24 76 3d 3b 0b ff 39 bf 93 90 d2 bd
       0.27830452 0.0028909529 -0.7265479 -0.102814816
000240 f6 90 dc 3f 38 f7 3c 3f b4 b0 83 3c 23 e6 94 bf
       1.7231739 0.73814726 0.01607547 -1.1632732
000250 0e 09 98 3e 9d 7a 4d 3f 59 1a 3f 3f 94 ba 85 3f
       0.29694408 0.8026522 0.7464958 1.0447564
000260 58 b0 91 3f b2 ac 33 3e ab 65 4b 3f a1 77 8d 3f
       1.1381941 0.17546347 0.7945201 1.1052133
000270 f6 51 48 bc 68 09 e0 3d b2 59 3c 3f 5c b1 07 3e
       -0.012226572 0.10939294 0.73574364 0.13251251
000280 5d a4 91 3f ad e0 b4 3e 26 7c 10 40 94 86 f9 bc
       1.1378285 0.35327664 2.2575774 -0.03045968
000290 2c 5f 81 3e 67 06 54 3f 75 6c 24 be e3 28 23 3d
       0.25267923 0.8282227 -0.16056998 0.039833914
0002a0 02 c2 36 bf 2e a8 67 3f fe a6 c8 3e 79 75 e0 3e
       -0.7138978 0.90490997 0.39189905 0.43839625
0002b0 ba e8 be 3e ac b6 91 3f 61 6c f6 3e c4 2b 8e 3e
       0.3728693 1.1383872 0.48129562 0.27767766
0002c0 30 cc 7e 3d e1 96 24 3f 59 03 ee bd 83 b1 41 be
       0.062206447 0.6429272 -0.11621732 -0.18915372
0002d0 97 ba 82 3f 5d 0c 7a 3f a4 3d db 3e a1 14 8a 3f
       1.0213193 0.97675115 0.42820466 1.0787545
0002e0 21 38 8a be fa b0 05 3f 34 44 b8 be 75 51 71 3f
       -0.26995948 0.5222317 -0.35989535 0.9426492
0002f0 86 0a 40 3f c0 da 0a 3e 61 9f 22 3f 9c d5 13 3f
       0.7501606 0.13560009 0.6352444 0.5774782
000300 e3 24 c1 3f db 66 6d 3f 4c fa 74 3e 2b f4 46 3f
       1.5089382 0.9273507 0.23923606 0.7771632
000310 95 da b6 bd 6c b4 20 be 49 82 9f 3f 3c cf 9f 3f
       -0.0892841 -0.15693825 1.2461635 1.2485118
000320 e6 82 98 3f e6 3a 57 3e 3b bb 54 3f fe aa a7 3f
       1.1914947 0.21018562 0.8309819 1.3099058
000330 dd 66 48 3e 7b 81 13 3e f1 be 1e 3f 26 7f 15 3e
       0.19570489 0.14404862 0.62010103 0.14599285
000340 63 06 3a 3f bb bd 52 be 75 54 71 3e dd 80 64 3e
       0.72665995 -0.20580189 0.23567374 0.22314782
000350 86 47 fc bd 6a 31 8a 3f e5 7b 30 bd f7 47 79 3e
       -0.123183295 1.079633 -0.043086905 0.24343859
000360 a7 f3 94 3e ae 95 75 3e 34 31 00 3c 65 f6 ad be
       0.29092142 0.2398288 0.007824231 -0.33977047
000370 67 a0 e1 be 57 2f 1b bf 79 b8 3a 3e 10 62 2c 3e
       -0.4406769 -0.6061911 0.18234433 0.16834283
000380 04 5e d7 3d 59 f6 3c bf 5f 06 48 3c a4 ba d2 3e
       0.10515979 -0.73813397 0.01220855 0.4115802
000390 c9 cd 2b bf cb a6 15 bf 58 cd bc bd c9 61 9e bf
       -0.6711088 -0.5845763 -0.09218854 -1.2373592
0003a0 5b 74 c5 3c 80 64 39 bf e7 d6 dd 3e 4f bb fd be
       0.024103334 -0.72418976 0.4332802 -0.49556968
0003b0 77 63 9e be 31 eb 53 bb 1f 4c 2f bf 91 76 f7 3d
       -0.3093526 -0.003233623 -0.68475527 0.120831616

sequential/dense_2/MatMul f4 [5, 10]
000000 5c 5a d7 3f f6 5f 70 bf d1 6e b7 c0 b5 c0 3f 40
       1.682445 -0.93896425 -5.7322774 2.996137
000010 8a ab ba 3f 73 a0 37 bd ab 20 64 c0 01 16 2b c0
       1.45836 -0.04483075 -3.564494 -2.673218
000020 59 71 84 c0 d9 54 7e 3f 2e 8e b7 bf b9 ec 86 3f
       -4.1388364 0.9934822 -1.4340265 1.0540992
000030 16 1b bf 3d 5d 2b b5 bf 02 80 51 bf 3a a2 04 3f
       0.09331338 -1.4153858 -0.8183595 0.5181004
000040 28 bf aa be 29 42 97 3f 04 1f 95 bf 9b f1 eb bf
       -0.33348966 1.1817065 -1.165009 -1.8433107
000050 e0 d4 d6 bf f1 59 0d 3f ff f2 5c 3f f7 7b e3 bf
       -1.6783714 0.55215365 0.8630828 -1.7772206
000060 2f f8 9d 3f 44 02 0d c0 32 6c d7 3e ec 9b 8b be
       1.2341365 -2.2032633 0.42074734 -0.27267396
000070 1b 9f 51 3f f7 8e 97 3f 8e a2 86 3f 09 2c 13 3e
       0.818834 1.1840504 1.0518358 0.14372267
000080 0f 8e 5f 3f 70 65 d6 bf 00 53 9d bf 17 01 e9 3e
       0.8732614 -1.6749706 -1.2290955 0.45508644
000090 82 d0 40 3f 30 f6 d0 3d ef d4 70 3f 03 29 66 bd
       0.7531816 0.102032065 0.9407491 -0.056191456
0000a0 e8 70 cd bf 0b 1d c4 bf 7e 59 7f bf da 06 b5 bf
       -1.6050081 -1.5321363 -0.9974593 -1.4142716
0000b0 ea 6d 0f c0 1e fd 04 c0 1a 8e b0 bf 73 ce 9e bf
       -2.2410836 -2.077949 -1.3793366 -1.2406753
0000c0 b5 83 12 bf 0d a0 d7 bf
       -0.5723222 -1.6845719
